…
ments other than a weight enum or `None` for 'weights' are deprecated since 0.13 and will be removed in 0.15. The current behavior is equivalent to passing `weights=ResNet18_Weights.IMAGENET1K_V1`. You can also use `weights=ResNet18_Weights.DEFAULT` to get the most up-to-date weights.\n","  warnings.warn(msg)\n"]},{"output_type":"stream","name":"stdout","text":["----------------------------------------------------------------\n","        Layer (type)               Output Shape         Param #\n","================================================================\n","            Conv2d-1         [-1, 64, 112, 112]           9,408\n","       BatchNorm2d-2         [-1, 64, 112, 112]             128\n","              ReLU-3         [-1, 64, 112, 112]               0\n","         MaxPool2d-4           [-1, 64, 56, 56]               0\n","            Conv2d-5           [-1, 64, 56, 56]          36,864\n","       BatchNorm2d-6           [-1, 64, 56, 56]             128\n","              ReLU-7           [-1, 64, 56, 56]               0\n","            Conv2d-8           [-1, 64, 56, 56]          36,864\n","       BatchNorm2d-9           [-1, 64, 56, 56]             128\n","             ReLU-10           [-1, 64, 56, 56]               0\n","       BasicBlock-11           [-1, 64, 56, 56]               0\n","           Conv2d-12           [-1, 64, 56, 56]          36,864\n","      BatchNorm2d-13           [-1, 64, 56, 56]             128\n","             ReLU-14           [-1, 64, 56, 56]               0\n","           Conv2d-15           [-1, 64, 56, 56]          36,864\n","      BatchNorm2d-16           [-1, 64, 56, 56]             128\n","             ReLU-17           [-1, 64, 56, 56]               0\n","       BasicBlock-18           [-1, 64, 56, 56]               0\n","           Conv2d-19          [-1, 128, 28, 28]          73,728\n","      BatchNorm2d-20          [-1, 128, 28, 28]             256\n","             ReLU-21          [-1, 128, 28, 28]               0\n","           Conv2d-22          [-1, 128, 28, 28]         147,456\n","      BatchNorm2d-23          [-1, 128, 28, 28]             256\n","           Conv2d-24          [-1, 128, 28, 28]           8,192\n","      BatchNorm2d-25          [-1, 128, 28, 28]             256\n","             ReLU-26          [-1, 128, 28, 28]               0\n","       BasicBlock-27          [-1, 128, 28, 28]               0\n","           Conv2d-28          [-1, 128, 28, 28]         147,456\n","      BatchNorm2d-29          [-1, 128, 28, 28]             256\n","             ReLU-30          [-1, 128, 28, 28]               0\n","           Conv2d-31          [-1, 128, 28, 28]         147,456\n","      BatchNorm2d-32          [-1, 128, 28, 28]             256\n","             ReLU-33          [-1, 128, 28, 28]               0\n","       BasicBlock-34          [-1, 128, 28, 28]               0\n","           Conv2d-35          [-1, 256, 14, 14]         294,912\n","      BatchNorm2d-36          [-1, 256, 14, 14]             512\n","             ReLU-37          [-1, 256, 14, 14]               0\n","           Conv2d-38          [-1, 256, 14, 14]         589,824\n","      BatchNorm2d-39          [-1, 256, 14, 14]             512\n","           Conv2d-40          [-1, 256, 14, 14]          32,768\n","      BatchNorm2d-41          [-1, 256, 14, 14]             512\n","             ReLU-42          [-1, 256, 14, 14]               0\n","       BasicBlock-43          [-1, 256, 14, 14]               0\n","           Conv2d-44          [-1, 256, 14, 14]         589,824\n","      BatchNorm2d-45          [-1, 256, 14, 14]             512\n","             ReLU-46          [-1, 256, 14, 14]               0\n","           Conv2d-47          [-1, 256, 14, 14]         589,824\n","      BatchNorm2d-48          [-1, 256, 14, 14]             512\n","             ReLU-49          [-1, 256, 14, 14]               0\n","       BasicBlock-50          [-1, 256, 14, 14]               0\n","           Conv2d-51            [-1, 512, 7, 7]       1,179,648\n","      BatchNorm2d-52            [-1, 512, 7, 7]           1,024\n","             ReLU-53            [-1, 512, 7, 7]               0\n","           Conv2d-54            [-1, 512, 7, 7]       2,359,296\n","      BatchNorm2d-55            [-1, 512, 7, 7]           1,024\n","           Conv2d-56            [-1, 512, 7, 7]         131,072\n","      BatchNorm2d-57            [-1, 512, 7, 7]           1,024\n","             ReLU-58            [-1, 512, 7, 7]               0\n","       BasicBlock-59            [-1, 512, 7, 7]               0\n","           Conv2d-60            [-1, 512, 7, 7]       2,359,296\n","      BatchNorm2d-61            [-1, 512, 7, 7]           1,024\n","             ReLU-62            [-1, 512, 7, 7]               0\n","           Conv2d-63            [-1, 512, 7, 7]       2,359,296\n","      BatchNorm2d-64            [-1, 512, 7, 7]           1,024\n","             ReLU-65            [-1, 512, 7, 7]               0\n","       BasicBlock-66            [-1, 512, 7, 7]               0\n","AdaptiveAvgPool2d-67            [-1, 512, 1, 1]               0\n","           Linear-68                 [-1, 1000]         513,000\n","================================================================\n","Total params: 11,689,512\n","Trainable params: 11,689,512\n","Non-trainable params: 0\n","----------------------------------------------------------------\n","Input size (MB): 0.57\n","Forward/backward pass size (MB): 62.79\n","Params size (MB): 44.59\n","Estimated Total Size (MB): 107.96\n","--------------------------------
…
