…
],"metadata":{"id":"QqURongpZ6e7","colab":{"base_uri":"https://localhost:8080/"},"executionInfo":{"status":"ok","timestamp":1680131701394,"user_tz":-540,"elapsed":11267,"user":{"displayName":"권오흠","userId":"05475008821310211864"}},"outputId":"dc57d407-59a5-40ce-c774-3279718ec405"},"execution_count":null,"outputs":[{"output_type":"stream","name":"stdout","text":["----------------------------------------------------------------\n","        Layer (type)               Output Shape         Param #\n","================================================================\n","            Conv2d-1         [-1, 64, 112, 112]           9,472\n","       BatchNorm2d-2         [-1, 64, 112, 112]             128\n","              ReLU-3         [-1, 64, 112, 112]               0\n","         MaxPool2d-4           [-1, 64, 56, 56]               0\n","            Conv2d-5           [-1, 64, 56, 56]          36,928\n","       BatchNorm2d-6           [-1, 64, 56, 56]             128\n","              ReLU-7           [-1, 64, 56, 56]               0\n","            Conv2d-8           [-1, 64, 56, 56]          36,928\n","       BatchNorm2d-9           [-1, 64, 56, 56]             128\n","             ReLU-10           [-1, 64, 56, 56]               0\n","    ResidualBlock-11           [-1, 64, 56, 56]               0\n","           Conv2d-12           [-1, 64, 56, 56]          36,928\n","      BatchNorm2d-13           [-1, 64, 56, 56]             128\n","             ReLU-14           [-1, 64, 56, 56]               0\n","           Conv2d-15           [-1, 64, 56, 56]          36,928\n","      BatchNorm2d-16           [-1, 64, 56, 56]             128\n","             ReLU-17           [-1, 64, 56, 56]               0\n","    ResidualBlock-18           [-1, 64, 56, 56]               0\n","           Conv2d-19           [-1, 64, 56, 56]          36,928\n","      BatchNorm2d-20           [-1, 64, 56, 56]             128\n","             ReLU-21           [-1, 64, 56, 56]               0\n","           Conv2d-22           [-1, 64, 56, 56]          36,928\n","      BatchNorm2d-23           [-1, 64, 56, 56]             128\n","             ReLU-24           [-1, 64, 56, 56]               0\n","    ResidualBlock-25           [-1, 64, 56, 56]               0\n","           Conv2d-26          [-1, 128, 28, 28]          73,856\n","      BatchNorm2d-27          [-1, 128, 28, 28]             256\n","             ReLU-28          [-1, 128, 28, 28]               0\n","           Conv2d-29          [-1, 128, 28, 28]         147,584\n","      BatchNorm2d-30          [-1, 128, 28, 28]             256\n","           Conv2d-31          [-1, 128, 28, 28]           8,320\n","      BatchNorm2d-32          [-1, 128, 28, 28]             256\n","             ReLU-33          [-1, 128, 28, 28]               0\n","    ResidualBlock-34          [-1, 128, 28, 28]               0\n","           Conv2d-35          [-1, 128, 28, 28]         147,584\n","      BatchNorm2d-36          [-1, 128, 28, 28]             256\n","             ReLU-37          [-1, 128, 28, 28]               0\n","           Conv2d-38          [-1, 128, 28, 28]         147,584\n","      BatchNorm2d-39          [-1, 128, 28, 28]             256\n","             ReLU-40          [-1, 128, 28, 28]               0\n","    ResidualBlock-41          [-1, 128, 28, 28]               0\n","           Conv2d-42          [-1, 128, 28, 28]         147,584\n","      BatchNorm2d-43          [-1, 128, 28, 28]             256\n","             ReLU-44          [-1, 128, 28, 28]               0\n","           Conv2d-45          [-1, 128, 28, 28]         147,584\n","      BatchNorm2d-46          [-1, 128, 28, 28]             256\n","             ReLU-47          [-1, 128, 28, 28]               0\n","    ResidualBlock-48          [-1, 128, 28, 28]               0\n","           Conv2d-49          [-1, 128, 28, 28]         147,584\n","      BatchNorm2d-50          [-1, 128, 28, 28]             256\n","             ReLU-51          [-1, 128, 28, 28]               0\n","           Conv2d-52          [-1, 128, 28, 28]         147,584\n","      BatchNorm2d-53          [-1, 128, 28, 28]             256\n","             ReLU-54          [-1, 128, 28, 28]               0\n","    ResidualBlock-55          [-1, 128, 28, 28]               0\n","           Conv2d-56          [-1, 256, 14, 14]         295,168\n","      BatchNorm2d-57          [-1, 256, 14, 14]             512\n","             ReLU-58          [-1, 256, 14, 14]               0\n","           Conv2d-59          [-1, 256, 14, 14]         590,080\n","      BatchNorm2d-60          [-1, 256, 14, 14]             512\n","           Conv2d-61          [-1, 256, 14, 14]          33,024\n","      BatchNorm2d-62          [-1, 256, 14, 14]             512\n","             ReLU-63          [-1, 256, 14, 14]               0\n","    ResidualBlock-64          [-1, 256, 14, 14]               0\n","           Conv2d-65          [-1, 256, 14, 14]         590,080\n","      BatchNorm2d-66          [-1, 256, 14, 14]             512\n","             ReLU-67          [-1, 256, 14, 14]               0\n","           Conv2d-68          [-1, 256, 14, 14]         590,080\n","      BatchNorm2d-69          [-1, 256, 14, 14]             512\n","             ReLU-70          [-1, 256, 14, 14]               0\n","    ResidualBlock-71          [-1, 256, 14, 14]               0\n","           Conv2d-72          [-1, 256, 14, 14]         590,080\n","      BatchNorm2d-73          [-1, 256, 14, 14]             512\n","             ReLU-74          [-1, 256, 14, 14]               0\n","           Conv2d-75          [-1, 256, 14, 14]         590,080\n","      BatchNorm2d-76          [-1, 256, 14, 14]             512\n","             ReLU-77          [-1, 256, 14, 14]               0\n","    ResidualBlock-78          [-1, 256, 14, 14]               0\n","           Conv2d-79          [-1, 256, 14, 14]         590,080\n","      BatchNorm2d-80          [-1, 256, 14, 14]             512\n","             ReLU-81          [-1, 256, 14, 14]               0\n","           Conv2d-82          [-1, 256, 14, 14]         590,080\n","      BatchNorm2d-83          [-1, 256, 14, 14]             512\n","             ReLU-84          [-1, 256, 14, 14]               0\n","    ResidualBlock-85          [-1, 256, 14, 14]               0\n","           Conv2d-86          [-1, 256, 14, 14]         590,080\n","      BatchNorm2d-87          [-1, 256, 14, 14]             512\n","             ReLU-88          [-1, 256, 14, 14]               0\n","           Conv2d-89          [-1, 256, 14, 14]         590,080\n","      BatchNorm2d-90          [-1, 256, 14, 14]             512\n","             ReLU-91          [-1, 256, 14, 14]               0\n","    ResidualBlock-92          [-1, 256, 14, 14]               0\n","           Conv2d-93          [-1, 256, 14, 14]         590,080\n","      BatchNorm2d-94          [-1, 256, 14, 14]             512\n","             ReLU-95          [-1, 256, 14, 14]               0\n","           Conv2d-96          [-1, 256, 14, 14]         590,080\n","      BatchNorm2d-97          [-1, 256, 14, 14]             512\n","             ReLU-98          [-1, 256, 14, 14]               0\n","    ResidualBlock-99          [-1, 256, 14, 14]               0\n","          Conv2d-100            [-1, 512, 7, 7]       1,180,160\n","     BatchNorm2d-101            [-1, 512, 7, 7]           1,024\n","            ReLU-102            [-1, 512, 7, 7]               0\n","          Conv2d-103            [-1, 512, 7, 7]       2,359,808\n","     BatchNorm2d-104            [-1, 512, 7, 7]           1,024\n","          Conv2d-105            [-1, 512, 7, 7]         131,584\n","     BatchNorm2d-106            [-1, 512, 7, 7]           1,024\n","            ReLU-107            [-1, 512, 7, 7]               0\n","   ResidualBlock-108            [-1, 512, 7, 7]               0\n","          Conv2d-109            [-1, 512, 7, 7]       2,359,808\n","     BatchNorm2d-110            [-1, 512, 7, 7]           1,024\n","            ReLU-111            [-1, 512, 7, 7]               0\n","          Conv2d-112            [-1, 512, 7, 7]       2,359,808\n","     BatchNorm2d-113            [-1, 512, 7, 7]           1,024\n","            ReLU-114            [-1, 512, 7, 7]               0\n","   ResidualBlock-115            [-1, 512, 7, 7]               0\n","          Conv2d-116            [-1, 512, 7, 7]       2,359,808\n","     BatchNorm2d-117            [-1, 512, 7, 7]           1,024\n","            ReLU-118            [-1, 512, 7, 7]               0\n","          Conv2d-119            [-1, 512, 7, 7]       2,359,808\n","     BatchNorm2d-120            [-1, 512, 7, 7]           1,024\n","            ReLU-121            [-1, 512, 7, 7]               0\n","   ResidualBlock-122            [-1, 512, 7, 7]               0\n","       AvgPool2d-123            [-1, 512, 1, 1]               0\n","          Linear-124                   [-1, 10]           5,130\n","================================================================\n","Total params: 21,298,314\n","Trainable params: 21,298,314\n","Non-trainable params: 0\n","----------------------------------------------------------------\n","Input size (MB): 0.57\n","Forward/backward pass size (MB): 96.28\n","Params size (MB): 81.25\n","Estimated Total Size (MB): 178.10\n","--------------------------------
…
"],"metadata":{"id":"Sqg36Qgdpaqq","colab":{"base_uri":"https://localhost:8080/"},"executionInfo":{"status":"ok","timestamp":1680563787630,"user_tz":-540,"elapsed":7310,"user":{"displayName":"권오흠","userId":"05475008821310211864"}},"outputId":"5ec5f86e-a66b-415a-f804-1c3c14cd303f"},"execution_count":null,"outputs":[{"output_type":"stream","name":"stdout","text":["----------------------------------------------------------------\n","        Layer (type)               Output Shape         Param #\n","================================================================\n","            Conv2d-1         [-1, 64, 112, 112]           9,408\n","       BatchNorm2d-2         [-1, 64, 112, 112]             128\n","              ReLU-3         [-1, 64, 112, 112]               0\n","         MaxPool2d-4           [-1, 64, 56, 56]               0\n","            Conv2d-5           [-1, 64, 56, 56]          36,864\n","       BatchNorm2d-6           [-1, 64, 56, 56]             128\n","              ReLU-7           [-1, 64, 56, 56]               0\n","            Conv2d-8           [-1, 64, 56, 56]          36,864\n","       BatchNorm2d-9           [-1, 64, 56, 56]             128\n","             ReLU-10           [-1, 64, 56, 56]               0\n","       BasicBlock-11           [-1, 64, 56, 56]               0\n","           Conv2d-12           [-1, 64, 56, 56]          36,864\n","      BatchNorm2d-13           [-1, 64, 56, 56]             128\n","             ReLU-14           [-1, 64, 56, 56]               0\n","           Conv2d-15           [-1, 64, 56, 56]          36,864\n","      BatchNorm2d-16           [-1, 64, 56, 56]             128\n","             ReLU-17           [-1, 64, 56, 56]               0\n","       BasicBlock-18           [-1, 64, 56, 56]               0\n","           Conv2d-19          [-1, 128, 28, 28]          73,728\n","      BatchNorm2d-20          [-1, 128, 28, 28]             256\n","             ReLU-21          [-1, 128, 28, 28]               0\n","           Conv2d-22          [-1, 128, 28, 28]         147,456\n","      BatchNorm2d-23          [-1, 128, 28, 28]             256\n","           Conv2d-24          [-1, 128, 28, 28]           8,192\n","      BatchNorm2d-25          [-1, 128, 28, 28]             256\n","             ReLU-26          [-1, 128, 28, 28]               0\n","       BasicBlock-27          [-1, 128, 28, 28]               0\n","           Conv2d-28          [-1, 128, 28, 28]         147,456\n","      BatchNorm2d-29          [-1, 128, 28, 28]             256\n","             ReLU-30          [-1, 128, 28, 28]               0\n","           Conv2d-31          [-1, 128, 28, 28]         147,456\n","      BatchNorm2d-32          [-1, 128, 28, 28]             256\n","             ReLU-33          [-1, 128, 28, 28]               0\n","       BasicBlock-34          [-1, 128, 28, 28]               0\n","           Conv2d-35          [-1, 256, 14, 14]         294,912\n","      BatchNorm2d-36          [-1, 256, 14, 14]             512\n","             ReLU-37          [-1, 256, 14, 14]               0\n","           Conv2d-38          [-1, 256, 14, 14]         589,824\n","      BatchNorm2d-39          [-1, 256, 14, 14]             512\n","           Conv2d-40          [-1, 256, 14, 14]          32,768\n","      BatchNorm2d-41          [-1, 256, 14, 14]             512\n","             ReLU-42          [-1, 256, 14, 14]               0\n","       BasicBlock-43          [-1, 256, 14, 14]               0\n","           Conv2d-44          [-1, 256, 14, 14]         589,824\n","      BatchNorm2d-45          [-1, 256, 14, 14]             512\n","             ReLU-46          [-1, 256, 14, 14]               0\n","           Conv2d-47          [-1, 256, 14, 14]         589,824\n","      BatchNorm2d-48          [-1, 256, 14, 14]             512\n","             ReLU-49          [-1, 256, 14, 14]               0\n","       BasicBlock-50          [-1, 256, 14, 14]               0\n","           Conv2d-51            [-1, 512, 7, 7]       1,179,648\n","      BatchNorm2d-52            [-1, 512, 7, 7]           1,024\n","             ReLU-53            [-1, 512, 7, 7]               0\n","           Conv2d-54            [-1, 512, 7, 7]       2,359,296\n","      BatchNorm2d-55            [-1, 512, 7, 7]           1,024\n","           Conv2d-56            [-1, 512, 7, 7]         131,072\n","      BatchNorm2d-57            [-1, 512, 7, 7]           1,024\n","             ReLU-58            [-1, 512, 7, 7]               0\n","       BasicBlock-59            [-1, 512, 7, 7]               0\n","           Conv2d-60            [-1, 512, 7, 7]       2,359,296\n","      BatchNorm2d-61            [-1, 512, 7, 7]           1,024\n","             ReLU-62            [-1, 512, 7, 7]               0\n","           Conv2d-63            [-1, 512, 7, 7]       2,359,296\n","      BatchNorm2d-64            [-1, 512, 7, 7]           1,024\n","             ReLU-65            [-1, 512, 7, 7]               0\n","       BasicBlock-66            [-1, 512, 7, 7]               0\n","AdaptiveAvgPool2d-67            [-1, 512, 1, 1]               0\n","           Linear-68                   [-1, 10]           5,130\n","================================================================\n","Total params: 11,181,642\n","Trainable params: 11,181,642\n","Non-trainable params: 0\n","----------------------------------------------------------------\n","Input size (MB): 0.57\n","Forward/backward pass size (MB): 62.79\n","Params size (MB): 42.65\n","Estimated Total Size (MB): 106.01\n","--------------------------------
…
